data.pth (torch, 12503 bytes, 6 tensors)

l1.weight f4 [8, 195]
00000000: 135d 703e 5473 3d3e 2ffb a0be e092 6bbe
00000010: 0a57 aa3e c213 c8be 23d3 40bf 733d 1cbf
00000020: ed16 da3e 5916 8c3e 3c4b 3a3f f37d 113f
00000030: 740b cc3f 9d75 053f 16a4 4abe 4d5c d13e
00000040: b802 44bc 346b bcbd 5720 9a3f 4120 82be
00000050: 30db ec3d ca96 633f 20f2 0e3f e49a da3e
00000060: ca7a 25be 8a18 c13e 3d45 a8be 7354 df3e
00000070: 383b 26be 64e3 853e 4908 3dbe 7969 b2be
00000080: 3648 bc3e 5968 f1be da75 ee3e 3b7a a93e
00000090: 4701 1abe 8136 1cbe ef1b 61bd 3ceb 2abe
000000a0: e445 8d3d 5490 e43f 3300 f43e 97bf 813f
000000b0: cc5f 5c3f f629 1bbf 8c9a 9e3e fda4 8c3e
000000c0: fd31 953f ceb3 483f f3dd 823e 15fe 663e
000000d0: dba0 c43f 6530 213c 43f9 65be 7fd7 12bf
000000e0: cada 683f 7f42 813d b891 fabe 380c 03bf
000000f0: 584a d23e 63bc 5b3e 9722 ad3f 677a 8d3e
00000100: 9c73 043f 0ba6 b43e 204f 9b3f a759 df3e
00000110: 5500 06bf cdd4 563e e95e 363e 8949 2f3e
00000120: 662a 1c3f 307a 71be a3fb 0abd 9d4e 27bf
00000130: 96d7 663e 4bec 10be 3ed7 17bf 78c1 a1be
00000140: a198 ae3d d591 963e 1bdd 8b3e e00e d63d
00000150: 4b3b 0d3f 3a1e 9e3f c73c 313e 7f49 373f
00000160: db55 b73e 237d 503e c2da 09bf 1c75 0f3d
00000170: b790 ab3f ab91 fbbd fe79 c03c a5ae 58bf
00000180: 763a ac3e bb7c f13e d599 be3e e7ea 0ebf
00000190: d4af 1e3f 0b07 053f b821 1bbe f284 6e3e
000001a0: 4e30 393f 2ea6 883e 1bd3 e8be 5a2f e9bd
000001b0: aaa5 063d 41a5 103f 3af6 413f 2847 d0be
000001c0: c6d9 10bf 1a7e 1b3e a7a0 8c3f 51db 043e
000001d0: 136f bd3e 9711 e53f 4c71 5d3e 1ca6 3bbe
000001e0: 7a4c 4fbd 8c1d 8ebe 2a92 7cbe 5b1f 85bf
000001f0: 02e1 9c3e f340 d6bd 76ac 2d3f e17a 29bf
00000200: a98b 79be 388b d1be a98d 06bf 0b1e df3d
00000210: 0751 0ebf 0105 14be 19fb 16be 9941 ddbd
00000220: 71a8 81bd 9653 373f 8914 233f 801f d63b
00000230: c83f e73d cfb0 a63e a9d7 003f a9bb 8d3e
00000240: 9fea be3e 5b00 efbe 1638 6cbf 99a6 583e
00000250: c3b3 c33d 601a 863e 7919 c03e de88 bbbe
00000260: 911e e1be bde4 86be 92f2 1a3e 443e 85bf
00000270: 540e a8bf 5bb2 89bf 64c9 453e a505 59be
00000280: f73c 2a3f 6bfc d7bc 0d19 0dbf 5320 9b3f
00000290: c5e2 0f3e eef2 25bf 7a37 ffbe e8ee cd3e
000002a0: 80bf 01be f56e 44bf 4d5f 26be 9baa e63e
000002b0: 7a9a e63b 93c8 4e3e e72c 4dbe 551d bc3d
000002c0: 17fa 0f3f 6fca 393e 88d5 dfbe 2bb1 453f
000002d0: 6d90 6d3f 55b3 e23e b009 193f 9170 e83e
000002e0: ff7e 503f 815a 193d 22ed 1dbf c5ff 803e
000002f0: e9a5 723f 8509 843d 877f 00bf 180b f6be
00000300: cde3 b2bd 43cb 7c3e 29b5 933e 4db5 e13e
00000310: 25f3 2cbe 1deb 87be 5e4a b2bd a028 7e3f
00000320: d5a3 733e 0856 81bf bd8e 1c3f 4521 be3e
00000330: 7957 7ebd 5cf1 fa3e e4cf 6a3f 4fc7 133f
00000340: c905 283f 880a 4e3f bd0c d33e 4601 bb3e
00000350: 8c04 db3e 87ab 5f3c db09 0e3e 986e 053d
00000360: e764 e53f a20f 8bbe ccd6 a23e ec05 adbd
00000370: ed41 0f3f 6d53 0a3e 760b 913e 751c a83f
00000380: dd74 063f 1758 0d3f bd00 783e 741b d1be
00000390: 74e6 c13f ca38 a33f 5626 fb3c 6d8d c4be
000003a0: 267f 91bd 4096 613e 2f65 7d3d 5534 213e
000003b0: d876 a9bf 5c45 113e 7de6 8d3f e31f 6f3f
000003c0: 875f 473f d39f 24bf 002a 6c39 f7f1 5c3f
000003d0: 3669 823f ca82 9c3e b993 01bf be00 2f3e
000003e0: 8411 843e b5f8 1bbe 9698 0b3f f4c0 81bf
000003f0: 0bdf 09bf 745e babf c138 16be e443 9d3d
0.23473005 0.18501025 -0.31441638 -0.23005247 0.3326953 -0.39077574 -0.7532217 -0.61031264
0.42595616 0.273608 0.7277105 0.5683281 1.5940995 0.5213259 -0.19789156 0.40890732
-0.011963539 -0.09200135 1.2041119 -0.25415233 0.11565244 0.8890196 0.55838203 0.42696297
-0.16160122 0.37714034 -0.32865325 0.43619117 -0.16233528 0.26150048 -0.18460192 -0.34846094
0.36773843 -0.47149923 0.4657429 0.33101067 -0.1503955 -0.15255167 -0.05495828 -0.16691297
0.06898096 1.7856545 0.47656402 1.0136594 0.86083674 -0.606109 0.30977285 0.27469626
1.165588 0.7839936 0.2555996 0.22557862 1.5361589 0.009838198 -0.22458367 -0.5736007
0.90958846 0.06311511 -0.489393 -0.5119052 0.41072345 0.21458583 1.3526181 0.27632448
0.51738906 0.3528293 1.2133522 0.43623087 -0.52344257 0.20979615 0.17809643 0.17117895
0.61002195 -0.23581767 -0.033931386 -0.6535433 0.22543177 -0.14152639 -0.5931281 -0.31592917
0.085252054 0.29408136 0.27317128 0.10452056 0.551686 1.2352974 0.17308341 0.7159652
0.3580769 0.20360236 -0.5384942 0.035023794 1.3403538 -0.12283643 0.02349567 -0.84641486
0.33638352 0.47165474 0.3722674 -0.5582718 0.6198704 0.5196387 -0.15149581 0.23292902
0.7233933 0.26689285 -0.4547356 -0.11385985 0.032872833 0.5650216 0.75766337 -0.40679288
-0.56582296 0.15184823 1.0986527 0.12974288 0.36998805 1.7895993 0.2162525 -0.18325084
-0.050610043 -0.27756917 -0.24665132 -1.0400194 0.30640417 -0.10461607 0.6784128 -0.66203123
-0.24369682 -0.40926528 -0.52559906 0.10894402 -0.5559239 -0.14455034 -0.14744224 -0.108035274
-0.06330956 0.71611917 0.6370321 0.006534517 0.11291462 0.3255677 0.5032907 0.27682236
0.37288377 -0.4667996 -0.9227308 0.21157302 0.09555771 0.26191998 0.37519434 -0.3662786
-0.43968633 -0.26346388 0.15131596 -1.0409627 -1.3129373 -1.0757555 0.19315106 -0.2119356
0.66499275 -0.02636548 -0.5511635 1.211924 0.1405135 -0.64823806 -0.49847013 0.40221334
-0.12670708 -0.76731807 -0.16247292 0.45052037 0.007037458 0.201937 -0.2003666 0.09185282
0.5624098 0.18143629 -0.437176 0.7722346 0.927985 0.44277444 0.59780407 0.4539838
0.8144378 0.037439827 -0.6168996 0.25195137 0.9478441 0.06447128 -0.5019459 -0.4805534
-0.08734856 0.24686913 0.28849152 0.44083634 -0.16889627 -0.26546565 -0.08705591 0.9928074
0.23792966 -1.010438 0.611553 0.37134758 -0.06209514 0.49012268 0.91723466 0.57725996
0.6563383 0.8048482 0.41220656 0.3652441 0.42776906 0.013651735 0.13870947 0.032576174
1.7921418 -0.27160364 0.31804502 -0.08448395 0.5595997 0.13508387 0.28329057 1.3133684
0.5252207 0.5521254 0.24219032 -0.40841258 1.5148454 1.2751706 0.030657928 -0.3838915
-0.0710433 0.22029972 0.061864074 0.1574262 -1.3239393 0.14186615 1.1085964 0.9340803
0.7788014 -0.6430637 0.0002252236 0.8630671 1.0188358 0.30568534 -0.5061603 0.17090127
0.25794613 -0.15231593 0.545297 -1.013701 -0.5385596 -1.4560075 -0.14670087 0.07678965

l1.bias f4 [8]
00000000: b259 eb3f 33c5 573f aa15 4a3f 036c 253f
00000010: fdff 973f 6f3e 9d3f d798 873f cb57 353f
1.8386748 0.8428528 0.78939307 0.6461794 1.1874996 1.2284678 1.0593518 0.70837086

l2.weight f4 [8, 8]
00000000: dd9b 1040 6e98 703f 7e1c ea3f e51f bf3c
00000010: b5d9 86bf 1230 49bf 1628 f4bf 677e e33f
00000020: ee2d e9be dbc5 69bf 4db6 1740 d895 8e3f
00000030: ec86 97bf 44ee ea3f 6667 573f b96d 813f
00000040: a192 0bbe b847 d8bd 40da 4bbc a4f5 a6bd
00000050: 9a30 713d 54eb 51be 16fe afbd 0751 163c
00000060: 5385 2240 04bd 00be 8eb2 d1be 7298 b2bf
00000070: 6d64 2c40 caed 0d40 20cf 0cbf 8c75 ccbe
00000080: 51bb f13e cab1 a33f 0252 103f a709 1240
00000090: 04f8 fe3f 72e6 03c0 3606 4d40 4b42 0a40
000000a0: a36c 843f 8416 afbd 0d00 ce3f 726b 0340
000000b0: 9b21 19c0 fbbf 913e bf99 9ebf cc1c 1a3f
000000c0: e5e6 bf3e 4c25 6b40 e005 5bbe 935c a33f
000000d0: f75b c2bf 2ca3 0540 79af 1440 9816 21bf
000000e0: e569 b3be 4713 903e 5f89 a3be b883 12bd
000000f0: 579d b4be d0e9 e1bc 69c6 5fbe 6083 92be
2.2595131 0.9398259 1.8289945 0.023330638 -1.0535189 -0.78588974 -1.9074733 1.777295
-0.45542854 -0.9131753 2.3705018 1.1139479 -1.183805 1.8353963 0.8414215 1.011161
-0.13630153 -0.10560554 -0.012442172 -0.08152321 0.05888424 -0.20499927 -0.08593385 0.009174592
2.5393875 -0.12572104 -0.4095654 -1.3952773 2.6936295 2.2176385 -0.5500355 -0.3993343
0.47213224 1.2788632 0.56375134 2.2818391 1.9919438 -2.0609403 3.203504 2.1602962
1.0345653 -0.085492164 1.6093765 2.053433 -2.392676 0.28466782 -1.239067 0.6020019
0.37480846 3.6741514 -0.2138896 1.2762626 -1.5184315 2.0880842 2.32321 -0.629251
-0.3504173 0.28139707 -0.31940743 -0.035770148 -0.3527629 -0.02757731 -0.21853031 -0.28615856

l2.bias f4 [8]
00000000: f86c 8f3c ea83 b93e da44 1ebe 1665 e73f
00000010: e55a d73e c05f 373f f8b0 d93e 9ee8 98be
0.017508015 0.36233455 -0.15455952 1.8077724 0.42061535 0.7163048 0.4251783 -0.29864973

l3.weight f4 [27, 8]
00000000: 6953 89be 8bb0 0bbf 6375 20be 7025 7dbf
00000010: 40f3 e13e e22c 11bf aa75 063e 80a4 e73d
00000020: 4c70 563e 53d3 9d3e 87af 823e 0fe3 4abe
00000030: f24d f5bc b8ea c4be d836 54bf 3049 43bd
00000040: 4fca e6bc 7d97 2b3f e40b 89be e78a 0dc0
00000050: b6d7 e03b 3da5 3a3d e62d 1b3e f128 b33e
00000060: 1e22 993e 08a7 4fc0 f770 523c 52c0 183e
00000070: f9a9 97bf e7e8 33bf 7797 413f ce8c 6b3e
00000080: f36a a6bf 3ec8 4ac0 8608 803e a3f0 3fbd
00000090: 8f97 4c3d 3e6d e2bf dde5 1e3f 5fd6 a13e
000000a0: 1f15 843e ae09 13be 0cdc 9e3e 2b1f 103f
000000b0: c17f 33c0 aa75 223f a7be ecbe 974c b23e
000000c0: b685 403d b51d 19bf 99e1 933e 7b4a b33e
000000d0: fa7b 0a3f 5a4d 8ebf cc47 3ec0 a2ac 403e
000000e0: 258b 593f b133 adbe b31a 76bd 581d 753d
000000f0: 1a46 6fbe 48f5 8c3e 0cb6 4dc0 4409 16be
00000100: 52ab ec3e f7e8 9abf 28c4 203e 6951 4bbf
00000110: fa6b 48be 1ee4 fe3e 06a2 9b3d 7df0 ae3e
00000120: d37b e33e 157a 3f3f 0461 9fbd 80e8 29bf
00000130: 7f97 96bf 33cb ca3e a40b 9dbe 7ed7 513e
00000140: 8e98 2fc0 9679 12c0 10cd 023d a0be 2ebf
00000150: f4e1 813f d026 81bf 2c2f 28ba a459 883d
00000160: 3eca 20c0 a8b0 39c0 6c8b 6dbe 293f 413f
00000170: 9bc1 2b3f 5181 7dbe 7936 8ebf b0e8 293d
00000180: 17b4 d0bf 9d04 c7bf a434 38be 917e aa3f
00000190: 2da3 dabe 7037 e2bd cb12 58c0 3470 a6be
000001a0: 7fee febf 705f 39c0 685a 5fbd e560 993f
000001b0: 3797 c6bf 7e40 07bf 2182 023e 4ad7 7a3e
000001c0: 26f4 553e f161 f5bf 61fa ec3d 5052 3f3f
000001d0: 9850 10bf 3333 0cc0 6eb3 d5be 3ed1 0e3e
000001e0: ebb8 303f c335 e4bf f22b 49be 898c b5be
000001f0: 1b6c a93e 7956 10bf 1b14 59bf d2c8 593e
00000200: b03c 7ebf 8683 17bf 8303 983e 5304 76bf
00000210: 1017 acbe a316 27bd 09ee 463f 64ab a1be
00000220: c6cd cbbf 5416 3bbf 9c04 cc3d 648b 2ec0
00000230: 8cb1 3b3f 34e5 8dbf a8f5 d23e e099 dd3c
00000240: 9f73 23c0 ee96 303d dd8c 833e 0bd9 373f
00000250: e052 d4bf 3ca2 c3bf 6aff bb3e e642 7c3e
00000260: 14ed 033e ea57 27be 398e 253c 7acf 2d3d
00000270: dd4c 7dbf 8b1c 20bf 5d35 913e 4169 ac3e
00000280: 0375 3e3e 0e2a 9f3e 7ef1 adbe 4348 53bf
00000290: 5aae 9d3e 2d18 1a3f df85 03c0 4846 5fbd
000002a0: ed8b 083f 8aab b43e cdb9 68be a9a6 3ec0
000002b0: 2310 07be e713 4a3f 467f 15bf 2065 74bd
000002c0: 51b0 29c0 f95b 213e 8343 b43e 7969 c9be
000002d0: fb22 1cbf 05ba 0dc0 a6f1 573f 7555 4fbe
000002e0: dcdf c2bf 8b87 1e3f 46d4 693e e643 88bf
000002f0: 244a 59bf 80e0 8c3e e0a1 113f a063 bc3d
00000300: a649 36c0 df22 343f bef5 a3be 6923 a6bd
00000310: 29f9 4ec0 cfb7 7e3f 43b1 6c3e 102d 153d
00000320: faa7 3ebf a83f 943e 5963 9fbe 0e3b 74bd
00000330: 530b d73e 589c 1fc0 9c89 3ebf 8d8f 55be
00000340: 8cef aabe 16a5 573e edfa 26be 0eae ebbf
00000350: 2870 793f c2e0 bbbe a01c 8bbf d9cf a13e
-0.2682145 -0.5456626 -0.1566978 -0.9888525 0.44130898 -0.5670911 0.13130823 0.11310673
0.20941275 0.3082529 0.25524542 -0.19813178 -0.029944394 -0.38460326 -0.82896185 -0.04767722
-0.02817264 0.6702803 -0.26766884 -2.211603 0.0068616522 0.04556774 0.15154228 0.34992173
0.29908842 -3.2445698 0.012844316 0.14917114 -1.1848747 -0.70277256 0.7562174 0.23002931
-1.3001388 -3.1684718 0.25006503 -0.04686035 0.049949225 -1.7689588 0.62069494 0.31608865
0.25797364 -0.14359161 0.31027257 0.5629756 -2.8046725 0.6346079 -0.46239206 0.34824058
0.047002517 -0.59810954 0.28883055 0.35017762 0.54095423 -1.1117356 -2.9731321 0.18815854
0.8497794 -0.338285 -0.060084056 0.059842438 -0.23366585 0.27530885 -3.2142363 -0.14651972
0.46224457 -1.2102345 0.15699828 -0.794211 -0.1957244 0.49783415 0.07599263 0.34167853
0.44430408 0.7479566 -0.07782176 -0.6637039 -1.1764983 0.39608154 -0.30672944 0.2049236
-2.7436862 -2.288671 0.031933844 -0.6825962 1.014708 -1.008997 -0.00064157206 0.066577226
-2.512344 -2.9014072 -0.23197716 0.75487 0.67092294 -0.24756362 -1.1110374 0.041481674
-1.6304959 -1.5548283 -0.17988831 1.3319875 -0.42702618 -0.1104573 -3.376147 -0.3250748
-1.9916533 -2.89645 -0.054529577 1.1982695 -1.5514897 -0.5283278 0.12744953 0.24496189
0.20893916 -1.9170514 0.115711935 0.74734974 -0.56372976 -2.190625 -0.41738456 0.13947007
0.6903216 -1.7828907 -0.1964567 -0.35458782 0.3309029 -0.56381947 -0.84796304 0.21268013
-0.9931135 -0.59185064 0.2969018 -0.9610035 -0.33611345 -0.040793072 0.7770696 -0.31576073
-1.5922172 -0.73080945 0.09961817 -2.7272577 0.7331779 -1.1085572 0.41203046 0.027050912
-2.553932 0.043112688 0.25693408 0.71815556 -1.6587791 -1.5283885 0.36718303 0.24634895
0.12883407 -0.1634213 0.010104709 0.042434193 -0.9894541 -0.62543553 0.28361025 0.33674052
0.18599324 0.31086773 -0.33973306 -0.8253214 0.30797082 0.6019314 -2.0550458 -0.054510385
0.5333851 0.35287124 -0.22727127 -2.9789221 -0.1318975 0.7893662 -0.5839733 -0.059666753
-2.6513865 0.15757741 0.35207757 -0.39338282 -0.60990876 -2.2144787 0.843531 -0.20247443
-1.5224566 0.6192557 0.22834882 -1.0645721 -0.84878755 0.2751503 0.56887627 0.091986895
-2.8482451 0.7036571 -0.32023424 -0.08112223 -3.2339575 0.9949922 0.23114495 0.036419928
-0.7447506 0.28954816 -0.31130484 -0.05962663 0.42000827 -2.4939175 -0.74428725 -0.20855542
-0.33385885 0.21059069 -0.16306658 -1.8412492 0.9743676 -0.36694914 -1.0868111 0.31603888

l3.bias f4 [27]
00000000: 2b84 0cbf 8676 87be 5b67 09bf 15ab abbd
00000010: f88a 383d 5526 063e 57e1 0bbf 8a04 c23d
00000020: 92e8 07be 8485 adbe ae53 663e ee5e 973f
00000030: 8051 45be 4af6 97bd dc2b 9a3e 63ba a8be
00000040: 8fa5 0ebf 8c42 b4bd b3c9 743e 53e3 3bbe
00000050: 4a01 08be 1c3c 71be 8d85 9c3e 65a2 e7bc
00000060: 90c3 b43e c535 ac3d 3b5c 35bc
-0.5488917 -0.26457614 -0.5367333 -0.08382241 0.045054406 0.1310056 -0.54640716 0.09473522
-0.13272312 -0.33890927 0.22492859 1.1825845 -0.19269371 -0.07420023 0.30111587 -0.32954702
-0.5572137 -0.08801755 0.23905067 -0.18348436 -0.13281742 -0.23558086 0.3057064 -0.028275678
0.35305452 0.08408693 -0.011069353
